assets/model/model.tflite (tflite, 2220 bytes, 4 tensors)

sequential/dense_1/BiasAdd/ReadVariableOp f4 [3]
000000 8c 88 2e 3e ce 69 0c be be 40 1c be
       0.17044276 -0.13712236 -0.15259072

sequential/dense/BiasAdd/ReadVariableOp f4 [10]
000000 18 33 73 be d3 bf 47 bd 96 42 91 bd 4e 4b 64 be
       -0.2374996 -0.048766922 -0.070927784 -0.22294351
000010 e6 34 88 be cc 1f 71 3d 35 cf 9d bd 7a e9 3b bc
       -0.26602858 0.058868214 -0.07705537 -0.011469239
000020 7d cb 8f 3b 2e 4d 5a 3d
       0.0043882714 0.05329626

sequential/dense/MatMul f4 [10, 6]
000000 ca 2e c7 3e 62 e0 6f 3f 86 9d 2a 3f d6 8e 63 3f
       0.38902885 0.93701756 0.6664661 0.88889825
000010 a4 78 67 3e 65 7f fb be c4 04 54 bf b6 af 85 be
       0.22604614 -0.49120632 -0.8281977 -0.2611062
000020 24 e3 82 bf be 3a dc be 5d 45 c0 be 8e 07 71 3e
       -1.0225568 -0.43013567 -0.3755292 0.23538038
000030 b1 3c 4a bf ce 06 16 bf 32 5d 73 bf 23 bc 67 bd
       -0.7899886 -0.58604133 -0.9506408 -0.056575906
000040 5e f8 cc be 1f 7e 0e 3f 07 70 71 3f ed 59 37 3c
       -0.4003324 0.55661196 0.94311565 0.011190874
000050 e8 e4 fa bb 63 88 9a 3e 74 43 15 3f 45 ec 1d bf
       -0.0076566823 0.3018218 0.5830605 -0.61688644
000060 73 bd 0b 3f 96 0f 90 3f 3f f2 4a 3f 0a b6 70 3f
       0.5458595 1.1254756 0.7927589 0.9402777
000070 d3 d2 9b 3f c2 7b 52 be 88 49 4d be e8 ea 05 bf
       1.2173713 -0.20555022 -0.20047581 -0.52311563
000080 01 08 1d be 08 fe b0 be e0 0a 1e bf f4 e1 b5 be
       -0.15335084 -0.3456881 -0.61735344 -0.3552395
000090 90 4f 7e bf 23 4f 5a bf e7 84 14 bf fa d8 3e bf
       -0.9934015 -0.85277003 -0.5801529 -0.7454983
0000a0 7c 73 83 bf 1c 2b 0e 3f b2 49 14 3f 61 11 99 3e
       -1.0269618 0.5553453 0.5792495 0.29896072
0000b0 f7 7a 3a 3f 97 76 64 3e 1f b5 48 3c bc 91 32 be
       0.7284388 0.22310863 0.012250214 -0.17438406
0000c0 91 49 09 bf b4 11 ef be 00 de 66 be cb 6f 74 bf
       -0.5362788 -0.46693194 -0.22545624 -0.9548308
0000d0 01 43 37 bf 5d 51 8b bd 29 47 df be dc 74 51 be
       -0.71586615 -0.06802628 -0.43608978 -0.20454735
0000e0 e4 fc 0f bf a7 62 a1 bd c7 3e c6 be 6d be 22 be
       -0.56245255 -0.078801446 -0.3871977 -0.15892954

sequential/dense_1/MatMul f4 [3, 10]
000000 30 8a 05 bf 70 87 10 3e 08 05 e8 3e 48 be f2 be
       -0.5216398 0.14114165 0.4531634 -0.47410798
000010 8f 3a f5 be 97 66 f2 3e 5d 15 1e 3f 72 b3 e4 bc
       -0.4789624 0.47343895 0.6175135 -0.027917597
000020 e9 17 18 3f 02 b7 db 3e e0 fe 96 3e df 50 27 bf
       0.59411484 0.4291306 0.2949133 -0.65357774
000030 4c 82 ed be 5f b3 3f 3e b4 cf f6 3d 9c 9c 24 be
       -0.4638847 0.18720768 0.12051335 -0.16075367
000040 bb 23 06 bf d8 1d a6 3d 88 32 16 be 62 46 89 be
       -0.5239827 0.08111161 -0.14667714 -0.2681151
000050 1e 45 21 bf 8e f4 e5 3d db ea ad be 4e 5b 01 bf
       -0.6299609 0.11228286 -0.33968243 -0.50529945
000060 d9 d7 ab bd 8a 82 22 be 64 d8 4c be 5c b3 85 be
       -0.08390779 -0.15870109 -0.20004421 -0.26113403
000070 fe f4 ea 3e 60 fb 4c 3e
       0.4589004 0.20017767
